models/net.pth (torch, 323299 bytes, 67 tensors)

conv.0.weight f4 [20, 3, 3, 3]
0	0x814a8200	-3.719481e-38
1	0x01213300	2.960762e-38
2	0x01ab0480	6.2821937e-38
3	0x019795c0	5.568352e-38
4	0x81bd1100	-6.945203e-38
5	0x01507f80	3.8295043e-38
6	0x8189b640	-5.058737e-38
7	0x81376880	-3.3686767e-38
8	0x81b01cc0	-6.4693444e-38
9	0x0016c200	2.089975e-39
10	0x0126c880	3.0633236e-38
11	0x811de800	-2.9002798e-38
12	0x014c5f80	3.75374e-38
13	0x011acc00	2.8431696e-38
14	0x80fbe000	-2.3131066e-38
15	0x81104f00	-2.6505303e-38
16	0x81678000	-4.2519835e-38
17	0x00e18300	2.070998e-38
18	0x81354600	-3.3294672e-38
19	0x81af5180	-6.4401794e-38
20	0x81ad8940	-6.374711e-38
21	0x81b3f480	-6.6105056e-38
22	0x019421c0	5.441504e-38
23	0x8050c800	-7.418586e-39
24	0x809f3300	-1.4620139e-38
25	0x0175a900	4.5120645e-38
26	0x80307c00	-4.452587e-39
27	0x0184c080	4.8765366e-38
28	0x8155c880	-3.9265773e-38
29	0x8068c700	-9.62228e-39
30	0x00e48900	2.098764e-38
31	0x819cc700	-5.75909e-38
32	0x00c91200	1.8465392e-38
33	0x0197e000	5.5790064e-38
34	0x81355c00	-3.3310456e-38
35	0x00a29c00	1.4933313e-38
36	0x81870b80	-4.960767e-38
37	0x00255d00	3.431275e-39
38	0x01bbd700	6.900146e-38
39	0x00f36f00	2.2355845e-38
40	0x81851980	-4.8893075e-38
41	0x819b4900	-5.704276e-38
42	0x01144b00	2.7237117e-38
43	0x81661900	-4.2262265e-38
44	0x8044d900	-6.322659e-39
45	0x01ad0940	6.3563436e-38
46	0x81b0e040	-6.497397e-38
47	0x819784c0	-5.5659127e-38
48	0x809a5200	-1.4172082e-38
49	0x00098800	8.75307e-40
50	0x80b6b700	-1.6779708e-38
51	0x01b80980	6.7604557e-38
52	0x01a2b780	5.977271e-38
53	0x01676d00	4.2506203e-38
54	0x002ed900	4.302278e-39
55	0x807f9b00	-1.1718712e-38
56	0x8144a580	-3.6118255e-38
57	0x00f97500	2.290901e-38
58	0x0169fb80	4.2975784e-38
59	0x8098d300	-1.4034688e-38
60	0x0154b780	3.9069905e-38
61	0x81533d00	-3.8798345e-38
62	0x81b80780	-6.7601687e-38
63	0x00c26e00	1.7855547e-38
64	0x019aef80	5.691433e-38
65	0x018ff000	5.2874287e-38
66	0x01116600	2.6705475e-38
67	0x80251b00	-3.407599e-39
68	0x006f8000	1.0239658e-38
69	0x80cadd00	-1.863005e-38
70	0x80ac3900	-1.5816153e-38
71	0x819a1bc0	-5.6610485e-38
72	0x814f2700	-3.8047877e-38
73	0x0136c880	3.3571972e-38
74	0x819f3ec0	-5.849742e-38
75	0x0039ec00	5.319284e-39
76	0x019a4300	5.6666806e-38
77	0x815a2c00	-4.0071845e-38
78	0x00db3300	2.0130269e-38
79	0x81585800	-3.973607e-38
80	0x80ea6600	-2.1526097e-38
81	0x014edd80	3.7995143e-38
82	0x01876bc0	4.974578e-38
83	0x00b3dc00	1.6517475e-38
84	0x0129ec80	3.1210078e-38
85	0x80936b00	-1.3538202e-38
86	0x80657a00	-9.31915e-39
87	0x8131f380	-3.2684468e-38
88	0x801a4a00	-2.414269e-39
89	0x8102cc80	-2.402395e-38
90	0x808fea00	-1.321642e-38
91	0x804d2000	-7.082813e-39
92	0x817c0e80	-4.6295493e-38
93	0x010e0800	2.608702e-38
94	0x0199dc40	5.6519367e-38
95	0x80c15900	-1.7756178e-38
96	0x01a0e080	5.909686e-38
97	0x005b0200	8.357748e-39
98	0x8153b680	-3.8885517e-38
99	0x81512900	-3.8416653e-38
100	0x806c7400	-9.959847e-39
101	0x0187a8c0	4.983331e-38
102	0x00154100	1.951863e-39
103	0x80edfc00	-2.1855413e-38
104	0x80035000	-3.04205e-40
105	0x819dd100	-5.797259e-38
106	0x00015600	1.22686e-40
107	0x8107f400	-2.4970645e-38
108	0x00c02d00	1.7648558e-38
109	0x80145000	-1.865409e-39
110	0x818cf5c0	-5.178051e-38
111	0x811fa700	-2.9323504e-38
112	0x8163f400	-4.1868377e-38
113	0x816ed980	-4.3869745e-38
114	0x01abfa00	6.317421e-38
115	0x01895300	5.044495e-38
116	0x80d38600	-1.942536e-38
117	0x00a4d500	1.5137431e-38
118	0x81bc0a40	-6.9075e-38
119	0x81940540	-5.4374147e-38
120	0x01ad8600	6.3742444e-38
121	0x011e1d00	2.9040823e-38
122	0x8193f280	-5.434724e-38
123	0x81b8eb40	-6.792849e-38
124	0x81ba00c0	-6.8326685e-38
125	0x81736480	-4.4704156e-38
126	0x019a2080	5.66173e-38
127	0x8003d600	-3.52275e-40
128	0x814e7980	-3.7923396e-38
129	0x011ed480	2.9172478e-38
130	0x81a4c600	-6.05282e-38
131	0x80d56400	-1.9596834e-38
132	0x01349800	3.3169833e-38
133	0x8196ca40	-5.539151e-38
134	0x00d52c00	1.9576745e-38
135	0x0180f1c0	4.736667e-38
136	0x01a73000	6.141499e-38
137	0x0181b640	4.764863e-38
138	0x009b5e00	1.4268223e-38
139	0x81b65840	-6.6982874e-38
140	0x80479c00	-6.576282e-39
141	0x81939ec0	-5.4227067e-38
142	0x01734d00	4.4687296e-38
143	0x80d9dd00	-2.0007583e-38
144	0x80f35b00	-2.234867e-38
145	0x0191da80	5.357812e-38
146	0x80e29900	-2.0809708e-38
147	0x8020c600	-3.009765e-39
148	0x81085480	-2.503988e-38
149	0x0192f000	5.3976313e-38
150	0x80977400	-1.3908773e-38
151	0x01a27ec0	5.969128e-38
152	0x00964b00	1.380223e-38
153	0x01ade340	6.387625e-38
154	0x00bc1500	1.7272607e-38
155	0x0115bd00	2.750258e-38
156	0x018abc40	5.096332e-38
157	0x01901b00	5.293599e-38
158	0x808aba00	-1.2740023e-38
159	0x81010880	-2.3699656e-38
160	0x810c6f00	-2.5793578e-38
161	0x01b13f40	6.511029e-38
162	0x011f9a80	2.9314536e-38
163	0x01151d00	2.7387784e-38
164	0x8004df00	-4.4734e-40
165	0x00ae4000	1.6002335e-38
166	0x016d2400	4.3555854e-38
167	0x80f57a00	-2.2543462e-38
168	0x818b3ec0	-5.115058e-38
169	0x005b0700	8.359541e-39
170	0x809c2f00	-1.4343198e-38
171	0x01465080	3.6424612e-38
172	0x81ab4e80	-6.292812e-38
173	0x00346100	4.810243e-39
174	0x813fbb80	-3.5215684e-38
175	0x80f1e000	-2.221271e-38
176	0x00477100	6.560857e-39
177	0x80982c00	-1.397478e-38
178	0x81b580c0	-6.6673646e-38
179	0x006bc500	9.897068e-39
180	0x817d9500	-4.6575663e-38
181	0x01640e80	4.188739e-38
182	0x011b3d00	2.851277e-38
183	0x00849700	1.2176454e-38
184	0x81492400	-3.6943698e-38
185	0x01344f80	3.3117817e-38
186	0x00328200	4.63841e-39
187	0x01a69b00	6.1201184e-38
188	0x80804100	-1.1778261e-38
189	0x01004b00	2.3563697e-38
190	0x019fd580	5.8713733e-38
191	0x00723b00	1.0490412e-38
192	0x81836740	-4.8269956e-38
193	0x806a0e00	-9.739585e-39
194	0x011eeb80	2.918898e-38
195	0x819cd700	-5.761386e-38
196	0x0109ba80	2.5296733e-38
197	0x8158d280	-3.982396e-38
198	0x003edb00	5.772363e-39
199	0x81982740	-5.58923e-38
200	0x01848b80	4.8689315e-38
201	0x017aaf00	4.6043304e-38
202	0x00302700	4.422094e-39
203	0x00c0e400	1.7714206e-38
204	0x817df300	-4.6643105e-38
205	0x003ca700	5.570038e-39
206	0x0182d180	4.8055076e-38
207	0x81b66640	-6.700296e-38
208	0x007bb100	1.1359262e-38
209	0x81127280	-2.6898115e-38
210	0x818c48c0	-5.153227e-38
211	0x0128d080	3.1006318e-38
212	0x017f9c00	4.6948028e-38
213	0x81599880	-3.996602e-38
214	0x800cd600	-1.178795e-39
215	0x00d9c300	1.9998255e-38
216	0x018cfd00	5.1790915e-38
217	0x80eb0800	-2.1584211e-38
218	0x01ab8240	6.300238e-38
219	0x808c2700	-1.287096e-38
220	0x81178f00	-2.7836917e-38
221	0x801e3600	-2.774436e-39
222	0x8054dc00	-7.793103e-39
223	0x00e0a500	2.0630342e-38
224	0x01b57000	6.664961e-38
225	0x01261680	3.0505528e-38
226	0x0039eb00	5.318925e-39
227	0x00dfb800	2.0545322e-38
228	0x80e82e00	-2.1322337e-38
229	0x019f51c0	5.852468e-38
230	0x01655100	4.2118772e-38
231	0x81652c00	-4.2092226e-38
232	0x00059200	5.11552e-40
233	0x808a5300	-1.2703073e-38
234	0x00c03500	1.7651428e-38
235	0x8105d380	-2.4579986e-38
236	0x818b3640	-5.113838e-38
237	0x011ce980	2.8820203e-38
238	0x80d6c000	-1.9721673e-38
239	0x81a62680	-6.1034014e-38
240	0x01081380	2.4993246e-38
241	0x817c5800	-4.6348227e-38
242	0x81b3df40	-6.6074563e-38
243	0x0135ba00	3.3377898e-38
244	0x012c3c00	3.1634459e-38
245	0x01254880	3.035773e-38
246	0x005b0d00	8.361694e-39
247	0x01879b00	4.981358e-38
248	0x018bd540	5.1366535e-38
249	0x017b7100	4.6182493e-38
250	0x80c5c900	-1.8163698e-38
251	0x811cfb80	-2.8833117e-38
252	0x8197f6c0	-5.582271e-38
253	0x00831b00	1.2040136e-38
254	0x80c6d100	-1.8258403e-38
255	0x019588c0	5.493018e-38

conv.1.weight f4 [20]
0	0x3f1aba14	0.6044018
1	0x3f1aba14	0.6044018
2	0x3f1aba14	0.6044018
3	0x3f1aba14	0.6044018
4	0x3f1aba14	0.6044018
5	0x3f1aba14	0.6044018
6	0x3f1aba14	0.6044018
7	0x3f1aba14	0.6044018
8	0x3f1aba14	0.6044018
9	0x3f1aba14	0.6044018
10	0x3f1aba14	0.6044018
11	0x3f1aba14	0.6044018
12	0x3f1aba14	0.6044018
13	0x3f1aba14	0.6044018
14	0x3f1aba14	0.6044018
15	0x3f1aba14	0.6044018
16	0x3f1aba14	0.6044018
17	0x3f1aba14	0.6044018
18	0x3f1aba14	0.6044018
19	0x3f1aba14	0.6044018

conv.1.bias f4 [20]
0	0x00000000	0.0
1	0x00000000	0.0
2	0x00000000	0.0
3	0x00000000	0.0
4	0x00000000	0.0
5	0x00000000	0.0
6	0x00000000	0.0
7	0x00000000	0.0
8	0x00000000	0.0
9	0x00000000	0.0
10	0x00000000	0.0
11	0x00000000	0.0
12	0x00000000	0.0
13	0x00000000	0.0
14	0x00000000	0.0
15	0x00000000	0.0
16	0x00000000	0.0
17	0x00000000	0.0
18	0x00000000	0.0
19	0x00000000	0.0

conv.1.running_mean f4 [20]
0	0x80ad5bcb	-1.592047e-38
1	0x80a7ee29	-1.5421964e-38
2	0x00198ce3	2.346428e-39
3	0x00484293	6.636038e-39
4	0x8131588a	-3.257329e-38
5	0x011599e7	2.7477397e-38
6	0x801384bc	-1.79249e-39
7	0x001b3494	2.49842e-39
8	0x002df2cb	4.219695e-39
9	0x01550b1a	3.9129886e-38
10	0x01240358	3.0124442e-38
11	0x8111a6a6	-2.6751858e-38
12	0x812857fb	-3.091985e-38
13	0x80a16479	-1.4821558e-38
14	0x801b67cf	-2.516798e-39
15	0x8010bc33	-1.536881e-39
16	0x80353f5d	-4.890012e-39
17	0x0104b026	2.437095e-38
18	0x00a00c4c	1.469809e-38
19	0x00a468a4	1.509856e-38

conv.1.running_var f4 [20]
0	0x00000004	6e-45
1	0x00000004	6e-45
2	0x00000004	6e-45
3	0x00000004	6e-45
4	0x00000004	6e-45
5	0x00000004	6e-45
6	0x00000004	6e-45
7	0x00000004	6e-45
8	0x00000004	6e-45
9	0x00000004	6e-45
10	0x00000004	6e-45
11	0x00000004	6e-45
12	0x00000004	6e-45
13	0x00000004	6e-45
14	0x00000004	6e-45
15	0x00000004	6e-45
16	0x00000004	6e-45
17	0x00000004	6e-45
18	0x00000004	6e-45
19	0x00000004	6e-45

residuals.0.conv1.weight f4 [20, 20, 3, 3]
0	0x81abc000	-6.3090986e-38
1	0x0119bf80	2.8239056e-38
2	0x01444c80	3.60544e-38
3	0x80b72a00	-1.6820963e-38
4	0x00bf8c00	1.7590802e-38
5	0x81bada80	-6.863914e-38
6	0x0017da00	2.19042e-39
7	0x81398a00	-3.4078144e-38
8	0x01017e00	2.3783959e-38
9	0x00fa8d00	2.3009455e-38
10	0x0088f600	1.2577876e-38
11	0x01a99cc0	6.230572e-38
12	0x81abde80	-6.313475e-38
13	0x008c0300	1.2858046e-38
14	0x80cdcb00	-1.88991e-38
15	0x81069f00	-2.472599e-38
16	0x8065f100	-9.36184e-39
17	0x8105aa80	-2.455057e-38
18	0x01430200	3.5817278e-38
19	0x01667a80	4.2332218e-38
20	0x81ad3940	-6.3632313e-38
21	0x813d9880	-3.482323e-38
22	0x019b6600	5.708437e-38
23	0x00376900	5.088619e-39
24	0x81ad7880	-6.372307e-38
25	0x017a6780	4.5992006e-38
26	0x01b62dc0	6.692189e-38
27	0x017c4800	4.6336748e-38
28	0x80dca300	-2.0262283e-38
29	0x81be01c0	-6.979749e-38
30	0x80dd3100	-2.0313223e-38
31	0x815f1b80	-4.0978362e-38
32	0x010fc200	2.640414e-38
33	0x817d6c80	-4.6546606e-38
34	0x01b47640	6.629124e-38
35	0x01489500	3.68411e-38
36	0x018cd1c0	5.1728854e-38
37	0x00815600	1.187763e-38
38	0x81858b00	-4.905594e-38
39	0x8145dd80	-3.6342104e-38
40	0x00f0f900	2.2129843e-38
41	0x001f9500	2.900352e-39
42	0x8168fd80	-4.2793548e-38
43	0x002b0700	3.951437e-39
44	0x002c5700	4.071972e-39
45	0x808fa800	-1.3192743e-38
46	0x00567600	7.940183e-39
47	0x81a2fb80	-5.9870286e-38
48	0x00c28600	1.7864156e-38
49	0x8121dd80	-2.9729948e-38
50	0x0195ed80	5.507475e-38
51	0x0081b500	1.191171e-38
52	0x012afd00	3.1405587e-38
53	0x8110e700	-2.6614357e-38
54	0x012f7080	3.2223138e-38
55	0x015fed80	4.112903e-38
56	0x016ca500	4.3464736e-38
57	0x004dbd00	7.139134e-39
58	0x004c7d00	7.024339e-39
59	0x801c0500	-2.573188e-39
60	0x01b84840	6.76946e-38
61	0x00585e00	8.115245e-39
62	0x81a71c40	-6.138665e-38
63	0x81452c00	-3.6214754e-38
64	0x01213a80	2.9613001e-38
65	0x000d5000	1.22256e-39
66	0x81661400	-4.2258678e-38
67	0x81ba4dc0	-6.8437175e-38
68	0x8185c400	-4.913773e-38
69	0x01219080	2.9674703e-38
70	0x8041d500	-6.045717e-39
71	0x019e3f40	5.8130793e-38
72	0x00706700	1.0322525e-38
73	0x00935c00	1.3532821e-38
74	0x80784200	-1.1043936e-38
75	0x0152d200	3.8721576e-38
76	0x8178de80	-4.5710042e-38
77	0x01027b80	2.3965836e-38
78	0x015cb380	4.0536403e-38
79	0x80837f00	-1.2076009e-38
80	0x00e32700	2.0860648e-38
81	0x00db6b00	2.0150358e-38
82	0x81b89c40	-6.7815133e-38
83	0x81b8f7c0	-6.794643e-38
84	0x01980300	5.5840286e-38
85	0x819e0c00	-5.805725e-38
86	0x80191900	-2.304856e-39
87	0x01a73380	6.142001e-38
88	0x014d8280	3.7746183e-38
89	0x0056ba00	7.964577e-39
90	0x01226a80	2.983111e-38
91	0x01bb2280	6.8742456e-38
92	0x00f68c00	2.2641755e-38
93	0x802fa100	-4.374024e-39
94	0x81013100	-2.3728714e-38
95	0x805ee100	-8.713251e-39
96	0x8084f300	-1.2209457e-38
97	0x81663800	-4.2284506e-38
98	0x80404400	-5.901866e-39
99	0x8103a300	-2.4177847e-38
100	0x80e97500	-2.1439642e-38
101	0x80aaef00	-1.5697771e-38
102	0x8114a880	-2.73042e-38
103	0x81ba4540	-6.842498e-38
104	0x800b3000	-1.02741e-39
105	0x0009a500	8.8571e-40
106	0x006e4300	1.012594e-38
107	0x80e5dc00	-2.110925e-38
108	0x01592e00	3.988961e-38
109	0x002f7600	4.358599e-39
110	0x011c7380	2.8735542e-38
111	0x811f2f00	-2.923741e-38
112	0x8123c580	-3.008007e-38
113	0x81b28b00	-6.558633e-38
114	0x80104300	-1.493403e-39
115	0x81567400	-3.9388818e-38
116	0x01174680	2.77849e-38
117	0x01828040	4.793849e-38
118	0x81b74c80	-6.7333355e-38
119	0x819211c0	-5.36574e-38
120	0x00f5cd00	2.2573237e-38
121	0x0139a700	3.409895e-38
122	0x81a40a40	-6.0258794e-38
123	0x81ab6300	-6.295754e-38
124	0x81a5d480	-6.091635e-38
125	0x01002080	2.3533205e-38
126	0x8118c400	-2.8058614e-38
127	0x0064c200	9.253144e-39
128	0x81954b00	-5.4841575e-38
129	0x0159d700	4.001086e-38
130	0x01655a00	4.212523e-38
131	0x81247b80	-3.021065e-38
132	0x010c8300	2.5807927e-38
133	0x8030db00	-4.486666e-39
134	0x8125e900	-3.0472883e-38
135	0x00735900	1.0593009e-38
136	0x01997c80	5.638197e-38
137	0x8072a500	-1.0528437e-38
138	0x81a0c100	-5.905166e-38
139	0x01ae4080	6.401006e-38
140	0x01377800	3.3697887e-38
141	0x016bfe80	4.3345278e-38
142	0x81af0440	-6.4290946e-38
143	0x01717200	4.43465e-38
144	0x814d7100	-3.7733627e-38
145	0x0186c080	4.950005e-38
146	0x80a5bf00	-1.5221375e-38
147	0x81197080	-2.8182377e-38
148	0x01bd6180	6.956754e-38
149	0x013e4b80	3.4951657e-38
150	0x000f4500	1.402285e-39
151	0x819f8280	-5.8594634e-38
152	0x8153be00	-3.8890898e-38
153	0x81b15d40	-6.515334e-38
154	0x01133a00	2.704125e-38
155	0x80bbc900	-1.7245343e-38
156	0x8181d140	-4.7687375e-38
157	0x01295200	3.109923e-38
158	0x81160f80	-2.756177e-38
159	0x80d7f000	-1.9830727e-38
160	0x018f3600	5.260739e-38
161	0x810ab400	-2.547574e-38
162	0x00714900	1.0403599e-38
163	0x80ced700	-1.899524e-38
164	0x00442600	6.258446e-39
165	0x81a11d80	-5.918439e-38
166	0x80966000	-1.3809763e-38
167	0x008e4600	1.3065752e-38
168	0x80b3a800	-1.6498821e-38
169	0x01265980	3.0553598e-38
170	0x016aaa80	4.310134e-38
171	0x01200c00	2.9395968e-38
172	0x013b7600	3.4431136e-38
173	0x8157b080	-3.9615896e-38
174	0x01657900	4.214747e-38
175	0x818ccb40	-5.171953e-38
176	0x00fc3d00	2.3164428e-38
177	0x81a03100	-5.884503e-38
178	0x01450580	3.6187132e-38
179	0x01785c80	4.5616772e-38
180	0x80935a00	-1.3532104e-38
181	0x01837b40	4.8298655e-38
182	0x01344300	3.310885e-38
183	0x807e3800	-1.1591362e-38
184	0x8128cd00	-3.1003807e-38
185	0x01507780	3.8289303e-38
186	0x005f1000	8.730112e-39
187	0x8086ad00	-1.2368017e-38
188	0x812e1500	-3.197382e-38
189	0x018aad00	5.0941437e-38
190	0x01826040	4.789257e-38
191	0x01060480	2.4615142e-38
192	0x00b66f00	1.675388e-38
193	0x011ba600	2.8588103e-38
194	0x81b49ac0	-6.634361e-38
195	0x00cf6e00	1.9049408e-38
196	0x811d7280	-2.8918496e-38
197	0x000c9d00	1.158347e-39
198	0x010c1b80	2.573367e-38
199	0x019fb500	5.86671e-38
200	0x80eb2100	-2.159318e-38
201	0x810d4680	-2.594819e-38
202	0x8141ae00	-3.557334e-38
203	0x00bd3200	1.7374845e-38
204	0x0175af00	4.512495e-38
205	0x8062d400	-9.07593e-39
206	0x81533100	-3.8789735e-38
207	0x81bc0300	-6.90646e-38
208	0x80a13d00	-1.4807398e-38
209	0x00ee7600	2.1899179e-38
210	0x80cd1e00	-1.8837039e-38
211	0x80836000	-1.2064888e-38
212	0x018f0840	5.254174e-38
213	0x81808140	-4.720524e-38
214	0x01277f80	3.0764532e-38
215	0x00c35600	1.7938773e-38
216	0x001ba600	2.539108e-39
217	0x01b01040	6.4675507e-38
218	0x00d7ca00	1.9817096e-38
219	0x8033dc00	-4.762531e-39
220	0x004c5300	7.009272e-39
221	0x01357980	3.3331622e-38
222	0x819bffc0	-5.730499e-38
223	0x00c6ea00	1.8267372e-38
224	0x01bb8e40	6.889707e-38
225	0x811d3200	-2.887222e-38
226	0x819dd0c0	-5.7972233e-38
227	0x81877a00	-4.976623e-38
228	0x818aa0c0	-5.092386e-38
229	0x81a9edc0	-6.242195e-38
230	0x011d7c80	2.892567e-38
231	0x80a37000	-1.5009364e-38
232	0x017a9100	4.602178e-38
233	0x81a0a240	-5.9007535e-38
234	0x00b40700	1.65329e-38
235	0x81b2fa00	-6.5745606e-38
236	0x80a0b900	-1.4760045e-38
237	0x0188a1c0	5.019061e-38
238	0x019cac00	5.755216e-38
239	0x80ae6500	-1.6015608e-38
240	0x80c43900	-1.8020205e-38
241	0x011b6c80	2.854685e-38
242	0x012f2200	3.2166817e-38
243	0x81baa840	-6.8567036e-38
244	0x818278c0	-4.7927726e-38
245	0x01566300	3.937662e-38
246	0x013adf80	3.4323158e-38
247	0x01b3ac80	6.600174e-38
248	0x01814e80	4.749976e-38
249	0x007c3100	1.140518e-38
250	0x014e7f00	3.7927342e-38
251	0x809d0800	-1.4421043e-38
252	0x00f0e000	2.2120875e-38
253	0x010c4c80	2.5768825e-38
254	0x8197e2c0	-5.579401e-38
255	0x816b5700	-4.3225103e-38

residuals.0.batch_norm1.weight f4 [20]
0	0x3f1aba14	0.6044018
1	0x3f1aba14	0.6044018
2	0x3f1aba14	0.6044018
3	0x3f1aba14	0.6044018
4	0x3f1aba14	0.6044018
5	0x3f1aba14	0.6044018
6	0x3f1aba14	0.6044018
7	0x3f1aba14	0.6044018
8	0x3f1aba14	0.6044018
9	0x3f1aba14	0.6044018
10	0x3f1aba14	0.6044018
11	0x3f1aba14	0.6044018
12	0x3f1aba14	0.6044018
13	0x3f1aba14	0.6044018
14	0x3f1aba14	0.6044018
15	0x3f1aba14	0.6044018
16	0x3f1aba14	0.6044018
17	0x3f1aba14	0.6044018
18	0x3f1aba14	0.6044018
19	0x3f1aba14	0.6044018

residuals.0.batch_norm1.bias f4 [20]
0	0x00000000	0.0
1	0x00000000	0.0
2	0x00000000	0.0
3	0x00000000	0.0
4	0x00000000	0.0
5	0x00000000	0.0
6	0x00000000	0.0
7	0x00000000	0.0
8	0x00000000	0.0
9	0x00000000	0.0
10	0x00000000	0.0
11	0x00000000	0.0
12	0x00000000	0.0
13	0x00000000	0.0
14	0x00000000	0.0
15	0x00000000	0.0
16	0x00000000	0.0
17	0x00000000	0.0
18	0x00000000	0.0
19	0x00000000	0.0

residuals.0.batch_norm1.running_mean f4 [20]
0	0x80000003	-4e-45
1	0x80000001	-1e-45
2	0x80000004	-6e-45
3	0x80000004	-6e-45
4	0x80000002	-3e-45
5	0x00000004	6e-45
6	0x00000003	4e-45
7	0x80000004	-6e-45
8	0x80000002	-3e-45
9	0x00000002	3e-45
10	0x80000004	-6e-45
11	0x00000004	6e-45
12	0x80000002	-3e-45
13	0x80000004	-6e-45
14	0x00000004	6e-45
15	0x80000004	-6e-45
16	0x00000004	6e-45
17	0x00000000	0.0
18	0x80000004	-6e-45
19	0x00000004	6e-45

residuals.0.batch_norm1.running_var f4 [20]
0	0x00000004	6e-45
1	0x00000004	6e-45
2	0x00000004	6e-45
3	0x00000004	6e-45
4	0x00000004	6e-45
5	0x00000004	6e-45
6	0x00000004	6e-45
7	0x00000004	6e-45
8	0x00000004	6e-45
9	0x00000004	6e-45
10	0x00000004	6e-45
11	0x00000004	6e-45
12	0x00000004	6e-45
13	0x00000004	6e-45
14	0x00000004	6e-45
15	0x00000004	6e-45
16	0x00000004	6e-45
17	0x00000004	6e-45
18	0x00000004	6e-45
19	0x00000004	6e-45

residuals.0.conv2.weight f4 [20, 20, 3, 3]
0	0x003f6000	5.820075e-39
1	0x009df100	1.4504627e-38
2	0x81a90240	-6.2084024e-38
3	0x0099a900	1.4111457e-38
4	0x01b30a40	6.5768923e-38
5	0x016f7000	4.3977723e-38
6	0x81420000	-3.5632173e-38
7	0x0069c600	9.713756e-39
8	0x81a4bc80	-6.051457e-38
9	0x8091b900	-1.3382512e-38
10	0x00ec4100	2.1696495e-38
11	0x00ef4700	2.1974154e-38
12	0x019f4c40	5.851679e-38
13	0x818d05c0	-5.180347e-38
14	0x81855fc0	-4.899388e-38
15	0x01b63e00	6.6945207e-38
16	0x816ecc80	-4.3860418e-38
17	0x80317000	-4.540117e-39
18	0x001bfb00	2.5696e-39
19	0x81755a80	-4.5064324e-38
20	0x014c4580	3.7518746e-38
21	0x011d2800	2.8865044e-38
22	0x00bef400	1.7536275e-38
23	0x80c5d800	-1.8169079e-38
24	0x81749300	-4.492119e-38
25	0x012fb400	3.2271567e-38
26	0x00498100	6.750268e-39
27	0x00ab1800	1.571248e-38
28	0x81502b80	-3.8234776e-38
29	0x0139c100	3.4117604e-38
30	0x00132000	1.756354e-39
31	0x81a98700	-6.227451e-38
32	0x81b7f5c0	-6.7576217e-38
33	0x816ea480	-4.383172e-38
34	0x800dc500	-1.264532e-39
35	0x00cdc300	1.889623e-38
36	0x019239c0	5.3714797e-38
37	0x01b82a00	6.765119e-38
38	0x81b9f040	-6.830301e-38
39	0x01012700	2.372154e-38
40	0x81ad8f00	-6.375536e-38
41	0x00664c00	9.394484e-39
42	0x012deb80	3.1944045e-38
43	0x8144a400	-3.611718e-38
44	0x819b8c80	-5.7139615e-38
45	0x01a51a00	6.0648736e-38
46	0x80dd7400	-2.0337258e-38
47	0x8122c480	-2.9895683e-38
48	0x812ca000	-3.1706205e-38
49	0x00545900	7.746109e-39
50	0x8138f800	-3.3973394e-38
51	0x80a14e00	-1.4813496e-38
52	0x811c0800	-2.8658415e-38
53	0x819afe00	-5.693514e-38
54	0x80eeff00	-2.1948325e-38
55	0x808bbe00	-1.2833293e-38
56	0x010a6500	2.541906e-38
57	0x015e7700	4.086034e-38
58	0x818eac40	-5.240973e-38
59	0x00f61e00	2.2602294e-38
60	0x00b4c400	1.6600701e-38
61	0x00859900	1.2269007e-38
62	0x01979cc0	5.5693565e-38
63	0x810d6800	-2.5972226e-38
64	0x01baf4c0	6.867681e-38
65	0x00b75800	1.6837464e-38
66	0x80897800	-1.2624511e-38
67	0x81331800	-3.2894327e-38
68	0x81087800	-2.506535e-38
69	0x005e4c00	8.6598e-39
70	0x81889400	-5.017088e-38
71	0x01947600	5.4535935e-38
72	0x012a8280	3.1317698e-38
73	0x0021c800	3.102318e-39
74	0x014aed00	3.727158e-38
75	0x018b2cc0	5.112475e-38
76	0x80885b00	-1.2522272e-38
77	0x80e2e800	-2.0838048e-38
78	0x80318d00	-4.55052e-39
79	0x009eba00	1.4576733e-38
80	0x80238000	-3.26016e-39
81	0x81070800	-2.4801324e-38
82	0x0154b280	3.9066318e-38
83	0x81a7c140	-6.162341e-38
84	0x81316c00	-3.2587252e-38
85	0x019430c0	5.4436567e-38
86	0x80c63300	-1.8201724e-38
87	0x01677500	4.2511943e-38
88	0x8065cb00	-9.348208e-39
89	0x8110b400	-2.6577767e-38
90	0x0191bdc0	5.3536866e-38
91	0x8181d280	-4.768917e-38
92	0x01b29340	6.5598167e-38
93	0x0126bc00	3.0624268e-38
94	0x80084400	-7.59078e-40
95	0x80cf7600	-1.9052278e-38
96	0x015be000	4.038466e-38
97	0x01422480	3.565836e-38
98	0x819566c0	-5.4881395e-38
99	0x803b7c00	-5.462777e-39
100	0x80973c00	-1.3888684e-38
101	0x017d3580	4.6507145e-38
102	0x81855500	-4.8978453e-38
103	0x018bfec0	5.1426084e-38
104	0x818c3b40	-5.15129e-38
105	0x81516680	-3.8460778e-38
106	0x8087ee00	-1.248317e-38
107	0x01402000	3.528779e-38
108	0x015a7880	4.012673e-38
109	0x81909b40	-5.312002e-38
110	0x801ec800	-2.826811e-39
111	0x80769c00	-1.0892551e-38
112	0x0121ab80	2.9694075e-38
113	0x00ebed00	2.1666361e-38
114	0x80e71700	-2.122225e-38
115	0x01a96d00	6.22372e-38
116	0x00619800	8.96257e-39
117	0x0168e300	4.2774535e-38
118	0x001fd100	2.921875e-39
119	0x81817200	-4.75507e-38
120	0x008ef500	1.312853e-38
121	0x80a9b500	-1.558513e-38
122	0x80ed4a00	-2.1791559e-38
123	0x80a03a00	-1.4714486e-38
124	0x00a4db00	1.5139584e-38
125	0x81bc2a40	-6.912092e-38
126	0x011c3800	2.8692853e-38
127	0x816c1e00	-4.3367878e-38
128	0x80bb7f00	-1.7218797e-38
129	0x81837040	-4.828287e-38
130	0x00207000	2.978914e-39
131	0x010f6500	2.6337416e-38
132	0x81a90e40	-6.2101243e-38
133	0x0163f480	4.1868735e-38
134	0x80bac300	-1.7151355e-38
135	0x81bc3c00	-6.914639e-38
136	0x81ba7200	-6.848919e-38
137	0x00ab4100	1.5727187e-38
138	0x00d5e400	1.9642752e-38
139	0x01822940	4.781365e-38
140	0x0190a780	5.3137596e-38
141	0x01a1c880	5.9429763e-38
142	0x81b30cc0	-6.577251e-38
143	0x81331680	-3.289325e-38
144	0x81acc000	-6.345833e-38
145	0x01a26b00	5.966294e-38
146	0x8143b700	-3.594714e-38
147	0x011c3000	2.8687113e-38
148	0x00291500	3.772789e-39
149	0x01404200	3.5312183e-38
150	0x0194e740	5.469844e-38
151	0x008da600	1.3008355e-38
152	0x004ff000	7.3411e-39
153	0x01a1c480	5.9424023e-38
154	0x801ea000	-2.812462e-39
155	0x00246a00	3.344103e-39
156	0x81979380	-5.568029e-38
157	0x80a27700	-1.492004e-38
158	0x80131e00	-1.755636e-39
159	0x00040000	3.67342e-40
160	0x01a26400	5.9652894e-38
161	0x80800200	-1.1755661e-38
162	0x01862640	4.927871e-38
163	0x01297280	3.1122547e-38
164	0x0185ba80	4.91241e-38
165	0x80cc9100	-1.8786457e-38
166	0x81464980	-3.641959e-38
167	0x81be2b00	-6.985668e-38
168	0x80ec5800	-2.1704746e-38
169	0x0195a280	5.496713e-38
170	0x804db000	-7.13447e-39
171	0x813e5280	-3.495668e-38
172	0x01a59300	6.082236e-38
173	0x81aaf700	-6.2802565e-38
174	0x00c32000	1.7919401e-38
175	0x00117f00	1.606762e-39
176	0x819d7240	-5.783663e-38
177	0x019897c0	5.605373e-38
178	0x01a36d00	6.003315e-38
179	0x00037c00	3.1999e-40
180	0x8149c200	-3.7057058e-38
181	0x81b73600	-6.730107e-38
182	0x81755e00	-4.5066835e-38
183	0x019114c0	5.329436e-38
184	0x81111700	-2.6648796e-38
185	0x003a3800	5.346548e-39
186	0x01a8dd80	6.203129e-38
187	0x00c37900	1.7951328e-38
188	0x81b52600	-6.6543427e-38
189	0x0009fa00	9.16203e-40
190	0x01702880	4.4110095e-38
191	0x814db280	-3.778062e-38
192	0x8134a300	-3.3177725e-38
193	0x019dbcc0	5.7943535e-38
194	0x80a01000	-1.4699419e-38
195	0x015a7780	4.0126013e-38
196	0x00e9bf00	2.1466188e-38
197	0x81073280	-2.4831816e-38
198	0x008a9600	1.2727108e-38
199	0x81405180	-3.5323304e-38
200	0x81a3c6c0	-6.0161936e-38
201	0x01321e00	3.271496e-38
202	0x0151d300	3.8538622e-38
203	0x80e72300	-2.1226555e-38
204	0x81ab2240	-6.2864626e-38
205	0x81062a80	-2.4642405e-38
206	0x81049f80	-2.4359007e-38
207	0x819f0b40	-5.842352e-38
208	0x008a5700	1.2704508e-38
209	0x8143f280	-3.598983e-38
210	0x818e8fc0	-5.2368833e-38
211	0x019f9e40	5.8634453e-38
212	0x0178c600	4.5692464e-38
213	0x018ac340	5.0973364e-38
214	0x819ad240	-5.687236e-38
215	0x81acd100	-6.348272e-38
216	0x81b2a600	-6.562507e-38
217	0x8133a300	-3.2994054e-38
218	0x81a65ac0	-6.110899e-38
219	0x81267c00	-3.057835e-38
220	0x01549680	3.904623e-38
221	0x0147ed80	3.6720925e-38
222	0x01b14540	6.51189e-38
223	0x8032a600	-4.651324e-39
224	0x8195b940	-5.4999776e-38
225	0x01a3b880	6.014149e-38
226	0x019d5240	5.7790715e-38
227	0x013dc300	3.4853723e-38
228	0x80aebf00	-1.6047894e-38
229	0x011f1580	2.9219113e-38
230	0x8108c000	-2.5117008e-38
231	0x81659180	-4.2165048e-38
232	0x01a66b00	6.1132307e-38
233	0x00797e00	1.1157295e-38
234	0x80d4af00	-1.9531903e-38
235	0x81192800	-2.813036e-38
236	0x80118300	-1.608197e-39
237	0x009ee900	1.4593593e-38
238	0x81784000	-4.5596324e-38
239	0x00989900	1.4013881e-38
240	0x81901c80	-5.293814e-38
241	0x00a1ef00	1.4871252e-38
242	0x81a2b800	-5.977343e-38
243	0x819a6b00	-5.6724203e-38
244	0x0106da80	2.476868e-38
245	0x011c4300	2.8700745e-38
246	0x01968800	5.529645e-38
247	0x81aabf40	-6.272257e-38
248	0x81927080	-5.379336e-38
249	0x015a0080	4.0040635e-38
250	0x80a45100	-1.5090079e-38
251	0x01a97500	6.224868e-38
252	0x81854280	-4.8951907e-38
253	0x81bc8e40	-6.926441e-38
254	0x8018bb00	-2.271135e-39
255	0x01828b80	4.795463e-38

residuals.0.batch_norm2.weight f4 [20]
0	0x3f1aba14	0.6044018
1	0x3f1aba14	0.6044018
2	0x3f1aba14	0.6044018
3	0x3f1aba14	0.6044018
4	0x3f1aba14	0.6044018
5	0x3f1aba14	0.6044018
6	0x3f1aba14	0.6044018
7	0x3f1aba14	0.6044018
8	0x3f1aba14	0.6044018
9	0x3f1aba14	0.6044018
10	0x3f1aba14	0.6044018
11	0x3f1aba14	0.6044018
12	0x3f1aba14	0.6044018
13	0x3f1aba14	0.6044018
14	0x3f1aba14	0.6044018
15	0x3f1aba14	0.6044018
16	0x3f1aba14	0.6044018
17	0x3f1aba14	0.6044018
18	0x3f1aba14	0.6044018
19	0x3f1aba14	0.6044018

residuals.0.batch_norm2.bias f4 [20]
0	0x00000000	0.0
1	0x00000000	0.0
2	0x00000000	0.0
3	0x00000000	0.0
4	0x00000000	0.0
5	0x00000000	0.0
6	0x00000000	0.0
7	0x00000000	0.0
8	0x00000000	0.0
9	0x00000000	0.0
10	0x00000000	0.0
11	0x00000000	0.0
12	0x00000000	0.0
13	0x00000000	0.0
14	0x00000000	0.0
15	0x00000000	0.0
16	0x00000000	0.0
17	0x00000000	0.0
18	0x00000000	0.0
19	0x00000000	0.0

residuals.0.batch_norm2.running_mean f4 [20]
0	0x00000004	6e-45
1	0x80000004	-6e-45
2	0x80000004	-6e-45
3	0x00000004	6e-45
4	0x00000004	6e-45
5	0x80000004	-6e-45
6	0x00000004	6e-45
7	0x80000004	-6e-45
8	0x80000004	-6e-45
9	0x80000004	-6e-45
10	0x80000004	-6e-45
11	0x00000004	6e-45
12	0x00000004	6e-45
13	0x00000004	6e-45
14	0x80000004	-6e-45
15	0x00000004	6e-45
16	0x00000004	6e-45
17	0x00000004	6e-45
18	0x00000004	6e-45
19	0x00000004	6e-45

residuals.0.batch_norm2.running_var f4 [20]
0	0x00000004	6e-45
1	0x00000004	6e-45
2	0x00000004	6e-45
3	0x00000004	6e-45
4	0x00000004	6e-45
5	0x00000004	6e-45
6	0x00000004	6e-45
7	0x00000004	6e-45
8	0x00000004	6e-45
9	0x00000004	6e-45
10	0x00000004	6e-45
11	0x00000004	6e-45
12	0x00000004	6e-45
13	0x00000004	6e-45
14	0x00000004	6e-45
15	0x00000004	6e-45
16	0x00000004	6e-45
17	0x00000004	6e-45
18	0x00000004	6e-45
19	0x00000004	6e-45

residuals.1.conv1.weight f4 [20, 40, 3, 3]
0	0x8123f300	-3.0112716e-38
1	0x81066080	-2.4681148e-38
2	0x814f2d80	-3.805254e-38
3	0x81a8e340	-6.203954e-38
4	0x80933800	-1.3519907e-38
5	0x81b88f80	-6.779684e-38
6	0x819fa500	-5.864414e-38
7	0x81677d80	-4.251804e-38
8	0x01786d00	4.562861e-38
9	0x800d3100	-1.21144e-39
10	0x81b49f40	-6.635007e-38
11	0x00932200	1.3512015e-38
12	0x802bc900	-4.021032e-39
13	0x81837a40	-4.829722e-38
14	0x8074b500	-1.0717848e-38
15	0x01011b00	2.371293e-38
16	0x80069f00	-6.08051e-40
17	0x8119fb80	-2.8282104e-38
18	0x00da8100	2.0066415e-38
19	0x003c6c00	5.548873e-39
20	0x813e9800	-3.5006543e-38
21	0x01b9fb40	6.8318793e-38
22	0x01482280	3.675895e-38
23	0x8087aa00	-1.2458776e-38
24	0x01746180	4.4885675e-38
25	0x81a3ea40	-6.0212876e-38
26	0x81b1e6c0	-6.535064e-38
27	0x0162bc80	4.1644886e-38
28	0x810c0b80	-2.572219e-38
29	0x80169b00	-2.075984e-39
30	0x01647e00	4.1967387e-38
31	0x819a8480	-5.6760794e-38
32	0x810a0800	-2.5352337e-38
33	0x8163d680	-4.1847211e-38
34	0x81341800	-3.3077998e-38
35	0x01b21040	6.541019e-38
36	0x01a9bf00	6.2354867e-38
37	0x01221000	2.976618e-38
38	0x01347700	3.3146157e-38
39	0x81b424c0	-6.617429e-38
40	0x0178e000	4.5711118e-38
41	0x0197ae40	5.5718676e-38
42	0x018b3f00	5.1150936e-38
43	0x01542100	3.8961927e-38
44	0x008bf700	1.2853741e-38
45	0x00d4ba00	1.953585e-38
46	0x8170a380	-4.4198344e-38
47	0x8163a580	-4.1812056e-38
48	0x00dec300	2.0457433e-38
49	0x815d3300	-4.062788e-38
50	0x01975800	5.5594913e-38
51	0x811f0080	-2.9204047e-38
52	0x80046b00	-4.05726e-40
53	0x817a8880	-4.6015682e-38
54	0x80683000	-9.568111e-39
55	0x0176b900	4.5315795e-38
56	0x8027c700	-3.652972e-39
57	0x01b30dc0	6.5773946e-38
58	0x81b59340	-6.670019e-38
59	0x0140db80	3.5422314e-38
60	0x00155900	1.960473e-39
61	0x01197300	2.818417e-38
62	0x814c0a00	-3.7476057e-38
63	0x81699900	-4.2905113e-38
64	0x81897140	-5.048836e-38
65	0x80896000	-1.2615901e-38
66	0x81908dc0	-5.3100647e-38
67	0x0184ff80	4.8855766e-38
68	0x8183f340	-4.8470847e-38
69	0x80e66100	-2.1156961e-38
70	0x80463a00	-6.449291e-39
71	0x012ee180	3.212054e-38
72	0x81619580	-4.1433234e-38
73	0x00dda400	2.0354477e-38
74	0x8102e400	-2.404081e-38
75	0x00756500	1.0780985e-38
76	0x816a7300	-4.306152e-38
77	0x805d7100	-8.581238e-39
78	0x0163d880	4.1848646e-38
79	0x01001480	2.3524595e-38
80	0x80ade400	-1.5969332e-38
81	0x012b5780	3.1470518e-38
82	0x0162fc80	4.1690804e-38
83	0x00d5da00	1.9639164e-38
84	0x81417600	-3.5533162e-38
85	0x80b69400	-1.6767153e-38
86	0x019b2a00	5.6998275e-38
87	0x00038c00	3.25729e-40
88	0x005c9f00	8.505904e-39
89	0x0102d680	2.4031125e-38
90	0x00eafa00	2.1579189e-38
91	0x00012e00	1.08337e-40
92	0x0116cb80	2.7696653e-38
93	0x01316800	3.2584382e-38
94	0x8012d600	-1.729808e-39
95	0x81a9f140	-6.242697e-38
96	0x000b6f00	1.05001e-39
97	0x81af7dc0	-6.446529e-38
98	0x0077f300	1.1015596e-38
99	0x00672400	9.47197e-39
100	0x816abe80	-4.311569e-38
101	0x81821300	-4.778172e-38
102	0x81937d40	-5.4178997e-38
103	0x8120bc80	-2.95226e-38
104	0x01531380	3.876857e-38
105	0x80a15800	-1.4817083e-38
106	0x818bc0c0	-5.133712e-38
107	0x012ae700	3.1389803e-38
108	0x81289c80	-3.096901e-38
109	0x01718880	4.4362643e-38
110	0x00e3a600	2.0906207e-38
111	0x80df9200	-2.053169e-38
112	0x818ebfc0	-5.243771e-38
113	0x807d9900	-1.1534323e-38
114	0x01b15600	6.5142935e-38
115	0x01414a00	3.5501594e-38
116	0x81662f80	-4.2278408e-38
117	0x016f9380	4.4003193e-38
118	0x0131f680	3.268662e-38
119	0x01978700	5.5662355e-38
120	0x816d1180	-4.354258e-38
121	0x806a2000	-9.746042e-39
122	0x812d3100	-3.1810237e-38
123	0x01a59500	6.082523e-38
124	0x809bde00	-1.431414e-38
125	0x001f1a00	2.856227e-39
126	0x0197bd00	5.573984e-38
127	0x81bdaa80	-6.967229e-38
128	0x011a0400	2.8288203e-38
129	0x010bda00	2.5686675e-38
130	0x01354780	3.3295748e-38
131	0x81bb0d40	-6.8711964e-38
132	0x805a4600	-8.290306e-39
133	0x814eac80	-3.7959987e-38
134	0x015a3780	4.0080096e-38
135	0x010bc680	2.5672685e-38
136	0x01a65300	6.109787e-38
137	0x019093c0	5.3109257e-38
138	0x8137f000	-3.3783983e-38
139	0x01259b80	3.041728e-38
140	0x000b8900	1.059337e-39
141	0x01be79c0	6.996968e-38
142	0x011e5c00	2.9086024e-38
143	0x01647680	4.1962006e-38
144	0x0019f100	2.382342e-39
145	0x810d9880	-2.6007023e-38
146	0x813d4a00	-3.476691e-38
147	0x00754a00	1.0771299e-38
148	0x80ea4600	-2.1514617e-38
149	0x0131f180	3.2683033e-38
150	0x0195bd00	5.500516e-38
151	0x00b7a700	1.6865804e-38
152	0x8164b800	-4.2009e-38
153	0x017a0880	4.5923847e-38
154	0x01575080	3.954702e-38
155	0x81231b80	-2.9958102e-38
156	0x81548c00	-3.9038695e-38
157	0x01506f80	3.8283564e-38
158	0x80dba500	-2.0171165e-38
159	0x01199800	2.8210716e-38
160	0x01be1340	6.98226e-38
161	0x00991300	1.4057647e-38
162	0x81193f00	-2.8146862e-38
163	0x0099c100	1.4120066e-38
164	0x819c9f00	-5.7533503e-38
165	0x016ad580	4.313219e-38
166	0x013fd800	3.5236132e-38
167	0x812bf280	-3.1581725e-38
168	0x01715680	4.432677e-38
169	0x01278e80	3.0775294e-38
170	0x80cca800	-1.8794708e-38
171	0x00e7b000	2.1277137e-38
172	0x013a8680	3.4259304e-38
173	0x00e46f00	2.0978312e-38
174	0x8161d480	-4.1478435e-38
175	0x8105c900	-2.4572452e-38
176	0x816eb380	-4.384248e-38
177	0x0193ec40	5.4338274e-38
178	0x010eef80	2.6253114e-38
179	0x80650800	-9.278255e-39
180	0x00bd7b00	1.7401033e-38
181	0x00fd6200	2.3269536e-38
182	0x8154c800	-3.9081743e-38
183	0x015e7b00	4.0863208e-38
184	0x81be62c0	-6.9936676e-38
185	0x01b918c0	6.799378e-38
186	0x81179f00	-2.7848397e-38
187	0x80d82b00	-1.9851893e-38
188	0x80938200	-1.3546453e-38
189	0x01719100	4.4368742e-38
190	0x80ce6d00	-1.8957214e-38
191	0x019cb200	5.7560767e-38
192	0x000ec100	1.354932e-39
193	0x81bd5300	-6.9546734e-38
194	0x015b5900	4.0287802e-38
195	0x80b13900	-1.627533e-38
196	0x815b0c80	-4.0232916e-38
197	0x002e6300	4.259947e-39
198	0x01331380	3.2891098e-38
199	0x81655780	-4.2123435e-38
200	0x01200a80	2.9394892e-38
201	0x80e9d100	-2.1472646e-38
202	0x80a97500	-1.556217e-38
203	0x0031ad00	4.562e-39
204	0x0055cb00	7.87884e-39
205	0x01a8ee80	6.2055684e-38
206	0x00b7b800	1.6871903e-38
207	0x81b38dc0	-6.5957617e-38
208	0x0103e580	2.4225558e-38
209	0x80038700	-3.23935e-40
210	0x808aa100	-1.2731054e-38
211	0x80fd8400	-2.3281733e-38
212	0x01a11380	5.917004e-38
213	0x0181f1c0	4.773401e-38
214	0x8150d300	-3.8354951e-38
215	0x80bec900	-1.752085e-38
216	0x8190a2c0	-5.313078e-38
217	0x813df100	-3.4886727e-38
218	0x815b8300	-4.0317935e-38
219	0x005a4700	8.290665e-39
220	0x8121ef80	-2.9742863e-38
221	0x81b29600	-6.560211e-38
222	0x806eb000	-1.0165041e-38
223	0x802bad00	-4.010987e-39
224	0x8164d800	-4.203196e-38
225	0x80ca6b00	-1.8589155e-38
226	0x0134d180	3.3211087e-38
227	0x81491f00	-3.694011e-38
228	0x01a5e040	6.093321e-38
229	0x80263500	-3.508762e-39
230	0x01995d80	5.633749e-38
231	0x01665800	4.2307465e-38
232	0x8185ef00	-4.919943e-38
233	0x8143f480	-3.5991264e-38
234	0x00810400	1.1848214e-38
235	0x01042780	2.427291e-38
236	0x01337f80	3.2968584e-38
237	0x80c9c900	-1.853104e-38
238	0x00100700	1.471879e-39
239	0x013af600	3.43393e-38
240	0x004ca600	7.039047e-39
241	0x016a5680	4.3041073e-38
242	0x81559d80	-3.9234922e-38
243	0x00308200	4.454739e-39
244	0x0144ff80	3.6182827e-38
245	0x0194ca40	5.465683e-38
246	0x0119dd00	2.8260222e-38
247	0x805fb200	-8.788227e-39
248	0x0180e3c0	4.734658e-38
249	0x816b9a00	-4.3273173e-38
250	0x81099800	-2.527198e-38
251	0x81639e80	-4.1807033e-38
252	0x008d3400	1.2967459e-38
253	0x819fc9c0	-5.869687e-38
254	0x81bcc280	-6.9339387e-38
255	0x01168200	2.764392e-38

residuals.1.batch_norm1.weight f4 [20]
0	0x3f1aba14	0.6044018
1	0x3f1aba14	0.6044018
2	0x3f1aba14	0.6044018
3	0x3f1aba14	0.6044018
4	0x3f1aba14	0.6044018
5	0x3f1aba14	0.6044018
6	0x3f1aba14	0.6044018
7	0x3f1aba14	0.6044018
8	0x3f1aba14	0.6044018
9	0x3f1aba14	0.6044018
10	0x3f1aba14	0.6044018
11	0x3f1aba14	0.6044018
12	0x3f1aba14	0.6044018
13	0x3f1aba14	0.6044018
14	0x3f1aba14	0.6044018
15	0x3f1aba14	0.6044018
16	0x3f1aba14	0.6044018
17	0x3f1aba14	0.6044018
18	0x3f1aba14	0.6044018
19	0x3f1aba14	0.6044018

residuals.1.batch_norm1.bias f4 [20]
0	0x00000000	0.0
1	0x00000000	0.0
2	0x00000000	0.0
3	0x00000000	0.0
4	0x00000000	0.0
5	0x00000000	0.0
6	0x00000000	0.0
7	0x00000000	0.0
8	0x00000000	0.0
9	0x00000000	0.0
10	0x00000000	0.0
11	0x00000000	0.0
12	0x00000000	0.0
13	0x00000000	0.0
14	0x00000000	0.0
15	0x00000000	0.0
16	0x00000000	0.0
17	0x00000000	0.0
18	0x00000000	0.0
19	0x00000000	0.0

residuals.1.batch_norm1.running_mean f4 [20]
0	0x00000004	6e-45
1	0x80000004	-6e-45
2	0x00000004	6e-45
3	0x80000004	-6e-45
4	0x80000004	-6e-45
5	0x00000002	3e-45
6	0x80000004	-6e-45
7	0x00000000	0.0
8	0x80000004	-6e-45
9	0x00000004	6e-45
10	0x00000004	6e-45
11	0x00000002	3e-45
12	0x00000004	6e-45
13	0x00000001	1e-45
14	0x00000004	6e-45
15	0x80000004	-6e-45
16	0x80000002	-3e-45
17	0x80000002	-3e-45
18	0x00000004	6e-45
19	0x00000004	6e-45

residuals.1.batch_norm1.running_var f4 [20]
0	0x00000004	6e-45
1	0x00000004	6e-45
2	0x00000004	6e-45
3	0x00000004	6e-45
4	0x00000004	6e-45
5	0x00000004	6e-45
6	0x00000004	6e-45
7	0x00000004	6e-45
8	0x00000004	6e-45
9	0x00000004	6e-45
10	0x00000004	6e-45
11	0x00000004	6e-45
12	0x00000004	6e-45
13	0x00000004	6e-45
14	0x00000004	6e-45
15	0x00000004	6e-45
16	0x00000004	6e-45
17	0x00000004	6e-45
18	0x00000004	6e-45
19	0x00000004	6e-45

residuals.1.conv2.weight f4 [20, 20, 3, 3]
0	0x8139f600	-3.415563e-38
1	0x81b369c0	-6.590596e-38
2	0x813e7000	-3.4977845e-38
3	0x81a71d40	-6.1388083e-38
4	0x81ad9600	-6.37654e-38
5	0x016e7f00	4.3804814e-38
6	0x00545500	7.744674e-39
7	0x81585e80	-3.9740735e-38
8	0x01a0b440	5.9033364e-38
9	0x01a35a40	6.0006246e-38
10	0x818748c0	-4.969556e-38
11	0x01352180	3.3268485e-38
12	0x8074e100	-1.0733632e-38
13	0x011cf080	2.8825225e-38
14	0x01bca600	6.929849e-38
15	0x012e9080	3.2062426e-38
16	0x01930240	5.40025e-38
17	0x01925e80	5.376753e-38
18	0x00e31800	2.0855267e-38
19	0x00c2c400	1.7886398e-38
20	0x80809400	-1.1808036e-38
21	0x8179ca00	-4.5879005e-38
22	0x00c5b900	1.8157958e-38
23	0x00d5ed00	1.964598e-38
24	0x81326380	-3.2764824e-38
25	0x007f9000	1.1714765e-38
26	0x01ac0840	6.319466e-38
27	0x01b2e980	6.572193e-38
28	0x018b76c0	5.1230934e-38
29	0x81be3600	-6.9872463e-38
30	0x813c6f00	-3.4609785e-38
31	0x806d1c00	-1.0020114e-38
32	0x01845c80	4.8621873e-38
33	0x81ac0440	-6.318892e-38
34	0x01a61480	6.1008186e-38
35	0x00af2700	1.6085202e-38
36	0x01be3140	6.986565e-38
37	0x00bf0e00	1.7545602e-38
38	0x01b4d200	6.642289e-38
39	0x00f52900	2.2514405e-38
40	0x8186bdc0	-4.9496104e-38
41	0x8125f100	-3.0478623e-38
42	0x0157b080	3.9615896e-38
43	0x000d2900	1.20857e-39
44	0x81044e00	-2.4300533e-38
45	0x80db0700	-2.0114485e-38
46	0x80d07d00	-1.9146625e-38
47	0x00964000	1.3798283e-38
48	0x81aa8740	-6.264221e-38
49	0x818e60c0	-5.230139e-38
50	0x002ec200	4.294027e-39
51	0x81989640	-5.605158e-38
52	0x01094580	2.521279e-38
53	0x81257300	-3.0388222e-38
54	0x812d0780	-3.1780463e-38
55	0x015d4300	4.063936e-38
56	0x81b97580	-6.812687e-38
57	0x81bbff00	-6.905886e-38
58	0x812e1e80	-3.1980635e-38
59	0x81616200	-4.1396285e-38
60	0x81295f80	-3.1108916e-38
61	0x01177d00	2.7824003e-38
62	0x01914ac0	5.337185e-38
63	0x8080b300	-1.1819157e-38
64	0x80c70000	-1.8275264e-38
65	0x81a27a40	-5.968482e-38
66	0x011d1a80	2.885536e-38
67	0x80a3bd00	-1.5036986e-38
68	0x00ca3f00	1.857337e-38
69	0x81012100	-2.3717234e-38
70	0x01bb6cc0	6.8849e-38
71	0x005ef500	8.720426e-39
72	0x81552380	-3.914739e-38
73	0x80d5f500	-1.964885e-38
74	0x01408000	3.5356666e-38
75	0x811ef000	-2.9192208e-38
76	0x00f15000	2.2161053e-38
77	0x8132c700	-3.2836212e-38
78	0x80d37f00	-1.9422849e-38
79	0x80f3e700	-2.2398893e-38
80	0x019b4e40	5.705029e-38
81	0x01719f80	4.4379145e-38
82	0x01b7abc0	6.747003e-38
83	0x819cff80	-5.7671974e-38
84	0x80113900	-1.581651e-39
85	0x01855840	4.8983116e-38
86	0x814cfc00	-3.7649684e-38
87	0x018e5340	5.228202e-38
88	0x80a10700	-1.4788026e-38
89	0x00cc9300	1.8787175e-38
90	0x01a02b80	5.8837137e-38
91	0x019ad3c0	5.687451e-38
92	0x805f6900	-8.762039e-39
93	0x014c2f80	3.7502962e-38
94	0x81b08240	-6.483909e-38
95	0x81a02600	-5.8829245e-38
96	0x010b0980	2.5537084e-38
97	0x01647c80	4.196631e-38
98	0x01a27200	5.9672983e-38
99	0x01185e80	2.798579e-38
100	0x81bc6080	-6.9198764e-38
101	0x0071f300	1.0464583e-38
102	0x01540900	3.8944708e-38
103	0x0125ea00	3.04736e-38
104	0x81022380	-2.39027e-38
105	0x0037d000	5.125569e-39
106	0x81b53e00	-6.6577865e-38
107	0x01a7a1c0	6.157821e-38
108	0x813b8700	-3.4443333e-38
109	0x016d5180	4.3588499e-38
110	0x81224000	-2.9800619e-38
111	0x00030900	2.78735e-40
112	0x01025c80	2.3943594e-38
113	0x81918340	-5.345292e-38
114	0x80df1300	-2.0486132e-38
115	0x813ff880	-3.525945e-38
116	0x80904800	-1.325014e-38
117	0x00572100	8.001526e-39
118	0x81818a40	-4.7585495e-38
119	0x805de500	-8.622851e-39
120	0x80897c00	-1.2625946e-38
121	0x813d6500	-3.4786281e-38
122	0x81838040	-4.830583e-38
123	0x01adcec0	6.3846835e-38
124	0x81955840	-5.486059e-38
125	0x018fcec0	5.2826576e-38
126	0x803f0100	-5.785995e-39
127	0x81a84840	-6.1817127e-38
128	0x01836bc0	4.8276414e-38
129	0x80e2e100	-2.0835537e-38
130	0x815c7600	-4.049228e-38
131	0x00ee5e00	2.1890569e-38
132	0x80d0b000	-1.916492e-38
133	0x01717c00	4.4353675e-38
134	0x80c54000	-1.8114552e-38
135	0x81b3c1c0	-6.6032233e-38
136	0x00450300	6.337725e-39
137	0x818b3700	-5.1139457e-38
138	0x81978900	-5.5665225e-38
139	0x807ca400	-1.1446434e-38
140	0x01b12d00	6.5084103e-38
141	0x81623080	-4.154444e-38
142	0x010f1480	2.627966e-38
143	0x016b2780	4.3191023e-38
144	0x814bb800	-3.7417225e-38
145	0x816c6500	-4.3418818e-38
146	0x014f8980	3.8118547e-38
147	0x812a2480	-3.1250256e-38
148	0x81472400	-3.6576356e-38
149	0x8165ef00	-4.223213e-38
150	0x81be2340	-6.984556e-38
151	0x0199c380	5.648385e-38
152	0x019defc0	5.8016716e-38
153	0x019f5480	5.8528627e-38
154	0x00cb3000	1.8659825e-38
155	0x01485800	3.6797335e-38
156	0x01384e00	3.3851425e-38
157	0x812c8b00	-3.1691138e-38
158	0x000a5800	9.49923e-40
159	0x80653b00	-9.29655e-39
160	0x8190e440	-5.322477e-38
161	0x01000700	2.351491e-38
162	0x0123a000	3.0053166e-38
163	0x00868f00	1.2357255e-38
164	0x816c1f00	-4.3368596e-38
165	0x01612100	4.134965e-38
166	0x8066db00	-9.445783e-39
167	0x01326780	3.2767694e-38
168	0x01b46e80	6.6280117e-38
169	0x8116a000	-2.7665443e-38
170	0x81894540	-5.042522e-38
171	0x01a1b800	5.9406087e-38
172	0x004d4e00	7.099314e-39
173	0x811be000	-2.8629716e-38
174	0x8046f900	-6.517809e-39
175	0x81a01040	-5.8798035e-38
176	0x80893500	-1.2600476e-38
177	0x01875600	4.971457e-38
178	0x808e7b00	-1.3084765e-38
179	0x818f1800	-5.256434e-38
180	0x015aba80	4.0174084e-38
181	0x0197f680	5.582235e-38
182	0x81aad740	-6.2757006e-38
183	0x80e8fd00	-2.1396594e-38
184	0x00d64300	1.9676831e-38
185	0x012e6380	3.203014e-38
186	0x00c43300	1.8018053e-38
187	0x0184b880	4.8753886e-38
188	0x812c6300	-3.166244e-38
189	0x01ab1780	6.28492e-38
190	0x011b5a80	2.8533934e-38
191	0x00596d00	8.212461e-39
192	0x01885680	5.008263e-38
193	0x809fde00	-1.4681482e-38
194	0x012cb300	3.1719837e-38
195	0x812edf00	-3.2118747e-38
196	0x819ef0c0	-5.8385493e-38
197	0x0185aa40	4.910078e-38
198	0x00d61600	1.9660688e-38
199	0x819513c0	-5.4762296e-38
200	0x81a015c0	-5.880593e-38
201	0x00e12e00	2.0679488e-38
202	0x01943880	5.444769e-38
203	0x00b44100	1.6553707e-38
204	0x813a5400	-3.4223072e-38
205	0x8079e500	-1.1194245e-38
206	0x804b1800	-6.896272e-39
207	0x8062da00	-9.078082e-39
208	0x8199f400	-5.6553446e-38
209	0x01706d80	4.41596e-38
210	0x80fb8700	-2.3099138e-38
211	0x005d7000	8.580879e-39
212	0x017a5280	4.597694e-38
213	0x80dff300	-2.0566488e-38
214	0x80d00000	-1.9101783e-38
215	0x01852380	4.8907424e-38
216	0x018883c0	5.014756e-38
217	0x00698100	9.689004e-39
218	0x810b1d80	-2.5551433e-38
219	0x8087df00	-1.247779e-38
220	0x81b99240	-6.8168126e-38
221	0x81528a80	-3.8670277e-38
222	0x015ff880	4.113692e-38
223	0x0176ee80	4.535418e-38
224	0x00497e00	6.749192e-39
225	0x808ada00	-1.2751502e-38
226	0x01b95000	6.807306e-38
227	0x007a2900	1.1218639e-38
228	0x00af0b00	1.6075158e-38
229	0x81afdf80	-6.4605554e-38
230	0x8102d500	-2.403005e-38
231	0x80b31100	-1.6444652e-38
232	0x01319c00	3.262169e-38
233	0x01676080	4.2497235e-38
234	0x8158e900	-3.9840104e-38
235	0x00c7d700	1.8352391e-38
236	0x81bb1e40	-6.873636e-38
237	0x00b3e600	1.6521062e-38
238	0x817e3080	-4.668723e-38
239	0x81bab840	-6.8589995e-38
240	0x819db980	-5.793887e-38
241	0x81b34340	-6.5850714e-38
242	0x8184ffc0	-4.8856125e-38
243	0x00243300	3.324373e-39
244	0x805e3c00	-8.65406e-39
245	0x01b1b1c0	6.527459e-38
246	0x818e7640	-5.233224e-38
247	0x81588a80	-3.9772303e-38
248	0x812bb080	-3.1534372e-38
249	0x81103800	-2.64888e-38
250	0x010b3080	2.5565065e-38
251	0x80d3a200	-1.9435404e-38
252	0x81413e80	-3.5493343e-38
253	0x0018ee00	2.28943e-39
254	0x80759400	-1.0797845e-38
255	0x01ba2b80	6.838803e-38

residuals.1.batch_norm2.weight f4 [20]
0	0x3f1aba14	0.6044018
1	0x3f1aba14	0.6044018
2	0x3f1aba14	0.6044018
3	0x3f1aba14	0.6044018
4	0x3f1aba14	0.6044018
5	0x3f1aba14	0.6044018
6	0x3f1aba14	0.6044018
7	0x3f1aba14	0.6044018
8	0x3f1aba14	0.6044018
9	0x3f1aba14	0.6044018
10	0x3f1aba14	0.6044018
11	0x3f1aba14	0.6044018
12	0x3f1aba14	0.6044018
13	0x3f1aba14	0.6044018
14	0x3f1aba14	0.6044018
15	0x3f1aba14	0.6044018
16	0x3f1aba14	0.6044018
17	0x3f1aba14	0.6044018
18	0x3f1aba14	0.6044018
19	0x3f1aba14	0.6044018

residuals.1.batch_norm2.bias f4 [20]
0	0x00000000	0.0
1	0x00000000	0.0
2	0x00000000	0.0
3	0x00000000	0.0
4	0x00000000	0.0
5	0x00000000	0.0
6	0x00000000	0.0
7	0x00000000	0.0
8	0x00000000	0.0
9	0x00000000	0.0
10	0x00000000	0.0
11	0x00000000	0.0
12	0x00000000	0.0
13	0x00000000	0.0
14	0x00000000	0.0
15	0x00000000	0.0
16	0x00000000	0.0
17	0x00000000	0.0
18	0x00000000	0.0
19	0x00000000	0.0

residuals.1.batch_norm2.running_mean f4 [20]
0	0x80000004	-6e-45
1	0x80000004	-6e-45
2	0x80000004	-6e-45
3	0x80000004	-6e-45
4	0x80000004	-6e-45
5	0x00000004	6e-45
6	0x00000004	6e-45
7	0x00000004	6e-45
8	0x80000004	-6e-45
9	0x80000004	-6e-45
10	0x00000004	6e-45
11	0x00000004	6e-45
12	0x80000004	-6e-45
13	0x80000004	-6e-45
14	0x80000004	-6e-45
15	0x80000004	-6e-45
16	0x80000004	-6e-45
17	0x00000004	6e-45
18	0x00000004	6e-45
19	0x00000004	6e-45

residuals.1.batch_norm2.running_var f4 [20]
0	0x00000004	6e-45
1	0x00000004	6e-45
2	0x00000004	6e-45
3	0x00000004	6e-45
4	0x00000004	6e-45
5	0x00000004	6e-45
6	0x00000004	6e-45
7	0x00000004	6e-45
8	0x00000004	6e-45
9	0x00000004	6e-45
10	0x00000004	6e-45
11	0x00000004	6e-45
12	0x00000004	6e-45
13	0x00000004	6e-45
14	0x00000004	6e-45
15	0x00000004	6e-45
16	0x00000004	6e-45
17	0x00000004	6e-45
18	0x00000004	6e-45
19	0x00000004	6e-45
